…
[2024-05-13T08:06:47.391+0000] {sasrec_dag.py:307} INFO - /opt/***
[2024-05-13T08:06:47.391+0000] {sasrec_dag.py:308} INFO - ['dags', 'logs', 'models', 'webserver_config.py', 'plugins', 'config', 'volumes', '***-worker.pid', '***.cfg', 'model_logs', 'model_checkpoints', 'requirements.txt']
[2024-05-13T08:06:47.824+0000] {instantiator.py:21} INFO - Created a temporary directory at /tmp/tmp67pb_yia
[2024-05-13T08:06:47.825+0000] {instantiator.py:76} INFO - Writing /tmp/tmp67pb_yia/_remote_module_non_scriptable.py
[2024-05-13T08:06:47.858+0000] {sasrec_dag.py:317} INFO - SasRec(
  (_model): SasRecModel(
    (item_embedder): SasRecEmbeddings(
      (item_emb): Embedding(1683, 64, padding_idx=1682)
      (pos_emb): SasRecPositionalEmbedding(
        (pe): Embedding(15, 64)
      )
      (item_emb_dropout): Dropout(p=0.5, inplace=False)
    )
    (sasrec_layers): SasRecLayers(
      (attention_layers): ModuleList(
        (0): MultiheadAttention(
          (out_proj): NonDynamicallyQuantizableLinear(in_features=64, out_features=64, bias=True)
        )
        (1): MultiheadAttention(
          (out_proj): NonDynamicallyQuantizableLinear(in_features=64, out_features=64, bias=True)
        )
      )
      (attention_layernorms): ModuleList(
        (0): LayerNorm((64,), eps=1e-08, elementwise_affine=True)
        (1): LayerNorm((64,), eps=1e-08, elementwise_affine=True)
      )
      (forward_layers): ModuleList(
        (0): SasRecPointWiseFeedForward(
          (conv1): Conv1d(64, 64, kernel_size=(1,), stride=(1,))
          (dropout1): Dropout(p=0.5, inplace=False)
          (relu): ReLU()
          (conv2): Conv1d(64, 64, kernel_size=(1,), stride=(1,))
          (dropout2): Dropout(p=0.5, inplace=False)
        )
        (1): SasRecPointWiseFeedForward(
          (conv1): Conv1d(64, 64, kernel_size=(1,), stride=(1,))
          (dropout1): Dropout(p=0.5, inplace=False)
          (relu): ReLU()
          (conv2): Conv1d(64, 64, kernel_size=(1,), stride=(1,))
          (dropout2): Dropout(p=0.5, inplace=False)
        )
      )
      (forward_layernorms): ModuleList(
        (0): LayerNorm((64,), eps=1e-08, elementwise_affine=True)
        (1): LayerNorm((64,), eps=1e-08, elementwise_affine=True)
      )
    )
    (output_normalization): SasRecNormalizer(
      (last_layernorm): LayerNorm((64,), eps=1e-08, elementwise_affine=True)
    )
    (_head): EmbeddingTyingHead(
      (_item_embedder): SasRecEmbeddings(
        (item_emb): Embedding(1683, 64, padding_idx=1682)
        (pos_emb): SasRecPositionalEmbedding(
          (pe): Embedding(15, 64)
        )
        (item_emb_dropout): Dropout(p=0.5, inplace=False)
      )
    )
  )
  (_loss): CrossEntropyLoss()
)
[2024-05-13T08:06:47.978+0000] {logging_mixin.py:151} WARNING - 2024/05/13 08:06:47 INFO mlflow.types.utils: Unsupported type hint: typing.List[int], skipping schema inference
[2024-05-13T08:06:47.978+0000] {logging_mixin.py:151} WARNING - 2024/05/13 08:06:47 INFO mlflow.types.utils: Unsupported type hint: typing.List[int], skipping schema inference
…
