…
[2024-05-13T07:41:09.836+0000] {taskinstance.py:1660} INFO - Exporting env vars: AIRFLOW_CTX_DAG_OWNER='***' AIRFLOW_CTX_DAG_ID='Sasrec_model_DAG' AIRFLOW_CTX_TASK_ID='upload_model_to_mlflow' AIRFLOW_CTX_EXECUTION_DATE='2024-05-13T07:15:32.708775+00:00' AIRFLOW_CTX_TRY_NUMBER='4' AIRFLOW_CTX_DAG_RUN_ID='manual__2024-05-13T07:15:32.708775+00:00'
[2024-05-13T07:41:09.837+0000] {sasrec_dag.py:310} INFO - /opt/***
[2024-05-13T07:41:09.837+0000] {sasrec_dag.py:311} INFO - ['dags', 'logs', 'models', 'webserver_config.py', 'plugins', 'config', 'volumes', '***-worker.pid', '***.cfg', 'model_logs', 'model_checkpoints', 'requirements.txt']
[2024-05-13T07:41:10.268+0000] {sasrec_dag.py:320} INFO - SasRec(
  (_model): SasRecModel(
    (item_embedder): SasRecEmbeddings(
      (item_emb): Embedding(1683, 64, padding_idx=1682)
      (pos_emb): SasRecPositionalEmbedding(
        (pe): Embedding(10, 64)
      )
      (item_emb_dropout): Dropout(p=0.5, inplace=False)
    )
    (sasrec_layers): SasRecLayers(
      (attention_layers): ModuleList(
        (0): MultiheadAttention(
          (out_proj): NonDynamicallyQuantizableLinear(in_features=64, out_features=64, bias=True)
        )
        (1): MultiheadAttention(
          (out_proj): NonDynamicallyQuantizableLinear(in_features=64, out_features=64, bias=True)
        )
      )
      (attention_layernorms): ModuleList(
        (0): LayerNorm((64,), eps=1e-08, elementwise_affine=True)
        (1): LayerNorm((64,), eps=1e-08, elementwise_affine=True)
      )
      (forward_layers): ModuleList(
        (0): SasRecPointWiseFeedForward(
          (conv1): Conv1d(64, 64, kernel_size=(1,), stride=(1,))
          (dropout1): Dropout(p=0.5, inplace=False)
          (relu): ReLU()
          (conv2): Conv1d(64, 64, kernel_size=(1,), stride=(1,))
          (dropout2): Dropout(p=0.5, inplace=False)
        )
        (1): SasRecPointWiseFeedForward(
          (conv1): Conv1d(64, 64, kernel_size=(1,), stride=(1,))
          (dropout1): Dropout(p=0.5, inplace=False)
          (relu): ReLU()
          (conv2): Conv1d(64, 64, kernel_size=(1,), stride=(1,))
          (dropout2): Dropout(p=0.5, inplace=False)
        )
      )
      (forward_layernorms): ModuleList(
        (0): LayerNorm((64,), eps=1e-08, elementwise_affine=True)
        (1): LayerNorm((64,), eps=1e-08, elementwise_affine=True)
      )
    )
    (output_normalization): SasRecNormalizer(
      (last_layernorm): LayerNorm((64,), eps=1e-08, elementwise_affine=True)
    )
    (_head): EmbeddingTyingHead(
      (_item_embedder): SasRecEmbeddings(
        (item_emb): Embedding(1683, 64, padding_idx=1682)
        (pos_emb): SasRecPositionalEmbedding(
          (pe): Embedding(10, 64)
        )
        (item_emb_dropout): Dropout(p=0.5, inplace=False)
      )
    )
  )
  (_loss): CrossEntropyLoss()
)
[2024-05-13T07:41:10.822+0000] {logging_mixin.py:151} WARNING - 2024/05/13 07:41:10 INFO mlflow.types.utils: Unsupported type hint: typing.List[int], skipping schema inference
[2024-05-13T07:41:10.822+0000] {logging_mixin.py:151} WARNING - 2024/05/13 07:41:10 INFO mlflow.types.utils: Unsupported type hint: typing.List[int], skipping schema inference
…
